Naturalistic-Brain-Datasets/NoiseCeiling/Harry_Potter_Noise_Ceiling/subject_J_kernel_ridge.npy (npy, 237328 bytes, 1 tensors)

array f8 [29650]
0.017639584340993594 -0.011127125867052183 0.0073769493748822475 -0.012718184278434057 -0.016268352548562827 0.022785736459606576 0.029251363247190312 0.015525293087609204
0.11307819249038244 0.05780955355480144 0.022489193673348673 0.009396598762151816 -0.030314268610628636 -0.014963241122219873 -0.014539799657743362 -0.011503649143938975
0.03246046153034404 0.04398490162300951 0.08850457483039231 0.06555569854146712 0.03901349626680878 0.01134072472250213 -0.024938524187125295 -0.021163490107708186
0.005074744560341368 0.004382525244998889 0.007514228431285118 0.026824485828860732 0.06388885780793568 0.07230322273916977 0.02253626850652773 0.023076233922189715
0.01557943626292587 0.003035467003233685 -0.023193267441830943 -0.014005350247699968 0.00916941648798019 0.014742030129238429 0.02796355990777629 0.06629430877106698
0.09752948889209448 -0.006493110432850553 -0.01634810280112273 -0.013132415682525196 -0.014528877698568116 -0.011748309600195543 -0.004450983978376639 -0.0018275410037816423
-0.016782889152376586 0.017894210643214226 -0.013284042393441178 0.017854669211056773 0.027058397289341528 0.11077208764974064 0.08459171668442138 -0.009537326092357275
-0.00926708465641325 0.02084016304728961 0.021615828607284993 0.020101246275753396 0.020496173495683338 0.007866440754574926 0.0915857805780074 0.10679294428801667
0.06632053400980015 0.008861803242622604 -0.011946282393126562 -0.014306116690403652 -0.013313272881568843 -0.011352453728226842 0.049847278904816335 0.06049067002901514
0.04272963235989548 0.021605178952601965 0.027942049307114296 0.023407938992594003 0.011608939215638468 0.027424047691581528 0.1317463927660812 0.13680047307962234
0.09080827782317841 0.02230284777852924 -0.007853495839288148 -0.007659909173344993 -0.010622857967376186 -0.024289274873788277 -0.023738371541220996 0.022388949331128234
0.06079683273682624 0.07111864202944065 0.05124086596689387 0.04629942584141704 0.03367170875945848 0.04011831109897514 0.04911697736753345 0.11953240991958666
0.14855413348839708 0.13633200832284306 0.0847176730933086 0.05449767101884382 0.0594028449535631 0.06057241320081024 0.021956846454132668 -0.025034201106489795
-0.027047281983689636 -0.0050111629867591444 0.0417670726868373 0.05452513822400899 0.05277516915081252 0.0410572573264137 0.05564785362184019 0.07048824425055114
0.048801888806230154 0.04242542463127426 0.11232772582984428 0.08865997627514416 0.07780397674126083 0.04837831357538577 0.023408120232723352 0.02482432419209358
0.057635394599714576 -0.016812878334897613 -0.008396451053025738 0.046456378616543496 0.06173695310176 0.08705902637718613 0.11179648853120785 0.07173644466039503
0.0481143799629105 0.08749894100807312 0.08612477923915443 0.09511943894360886 0.06369769292463036 0.05309625729474131 0.051531237743093754 0.06692714022259724
-0.007591246663908464 0.03622679012560895 0.06759527911740829 0.07931262347632495 0.09560210358725868 0.131931438728556 0.1441258987307555 0.07992333813270111
0.08071452806562707 0.08430237269119586 0.0651621127183761 0.05518468330392827 0.05699867922451858 0.06178063236654276 0.09904160503539286 0.13173833243363314
0.08308518804153642 0.08201418761881377 0.07348605339799286 0.06857978274154575 0.07496448219923837 0.06234973092827223 0.0729706811100619 0.07085382698779774
0.019088210737785202 0.09475773090638212 0.1107897469093723 0.07648755374431276 -0.006492012406927679 0.010807450143543954 -0.01624518396155584 0.05608558065261367
0.04452969536882681 0.03324831048287387 0.02510971857816556 0.013576819553238969 0.013910225360305836 0.02252993472304305 0.05097891488946675 0.08150639620431893
0.0953956221886969 0.05963808058384726 -0.002810722795559821 -0.016441126756507968 -0.021164293239174303 -0.0350531103984541 -0.036008033932011574 0.0634383820557779
0.04859481399984997 0.029159043532108096 0.0052072282929837375 0.022235620088914464 0.04009031725588667 0.025292892224987325 0.06864423151689084 0.0950079592212989
-0.01802043404524905 -0.022110575627095994 -0.026644556682002815 -0.026622403932621115 -0.013958056425997555 0.03462907047409347 0.0747780374218926 0.09515860519822136
0.05544460325879835 0.025107896262172538 0.036467357046446575 0.038145672954313245 0.09769766606071006 0.12120006693199413 0.03195885600885355 0.03292883714306124
0.037561083984582674 0.020793060421083087 -0.009679551109276721 0.0318296684542819 0.13551278353400878 0.13303691497742656 0.09727923789411938 0.08182338065391109
0.06052054954350887 0.10359303945735743 0.09954620769521273 0.08392469231545714 0.11332567696750122 0.14406056319292979 0.06506810433565864 0.039947505047524215
0.03198671546638081 0.12858721156206165 0.13475721849899547 0.11382419345755146 0.126167738019703 0.11862965124203823 0.08426757457500014 0.0785154285844325
0.10799010813574278 0.13116083301214476 0.13414745363166689 0.16016624530368198 0.18989355825487664 0.17282805336545592 0.08836149303293087 0.13409573013548443
0.04291945986966311 0.1340688657700353 0.16420740137587161 0.14445647596996386 0.10632595526578101 0.12703884892560502 0.13356880326129347 0.14709587920359407
0.12612553398666715 0.025534176437415356 0.017314327143929997 0.07068645424830211 0.11944933906137725 0.1395815395550572 0.1276408156838765 0.15067923031059055
00000000: 4c3b 7077 1c10 923f 6968 948d d1c9 86bf
00000010: b42a f3c4 4a37 7e3f 76b0 52cc fd0b 8abf
00000020: da9d 9fa8 a6a8 90bf a01b a3e3 2455 973f
00000030: 5457 0ac2 11f4 9d3f 46a7 9390 b9cb 8f3f
00000040: 7911 a342 b1f2 bc3f 5016 d4bb 3699 ad3f
00000050: 009d 5c3d 6807 973f 7e40 0423 863e 833f
00000060: 10a5 2321 b40a 9fbf 27c6 183a 0ca5 8ebf
00000070: 56c7 29e0 0ac7 8dbf 3fee dca6 398f 87bf
00000080: 782d 5f59 a89e a03f 322a fa63 3085 a63f
00000090: 3063 715e 3ca8 b63f 3e52 4d1d 42c8 b03f
000000a0: 881a 23b5 93f9 a33f fb61 5e4e ce39 873f
000000b0: e544 2d07 7c89 99bf 71fd 86c7 e1ab 95bf
000000c0: d669 c15e 41c9 743f ca5e 9e29 69f3 713f
000000d0: 7268 df55 3dc7 7e3f 96c7 77c5 e077 9b3f
000000e0: 1c27 dd2a 055b b03f 2f65 0fc9 7682 b23f
000000f0: ef6f d660 bf13 973f 00e8 0ad8 4ba1 973f
00000100: ac41 ea89 1ce8 8f3f 5225 39f0 d5dd 683f
00000110: 86a5 99d4 f9bf 97bf 6e5f 434a d6ae 8cbf
00000120: 3ca4 833f 6ac7 823f 68f9 40ca 1131 8e3f
00000130: 7671 22bd 7aa2 9c3f 1e29 15f0 a9f8 b03f
00000140: 7ae8 2f4d b1f7 b83f 3ba5 550f 8598 7abf
00000150: b9a5 879b 8ebd 90bf 77cb fdfe 2ae5 8abf
00000160: 70e3 80f4 50c1 8dbf ef04 216c 7f0f 88bf
00000170: 1451 f4e9 313b 72bf 3a4d f935 43f1 5dbf
00000180: e2da 2aa0 882f 91bf 3059 0026 dc52 923f
00000190: c8a9 1bfd a934 8bbf b09a 5e91 7e48 923f
000001a0: 5674 c24d 32b5 9b3f 7ee9 c33d 8f5b bc3f
000001b0: eb0d ac80 cda7 b53f 9181 433d 4e88 83bf
000001c0: c77c 3a0c 9ffa 82bf 78f8 ecaa 1f57 953f
000001d0: 4de4 c6b3 7522 963f 64eb 73cd 6b95 943f
000001e0: 21ac 6deb f2fc 943f dced 36ce 471c 803f
000001f0: e275 5c6c 2a72 b73f e01b 294b c856 bb3f
00000200: c416 a0ec 61fa b03f e89c e218 2326 823f
00000210: c081 7fe1 4a77 88bf 5c5a 8b7a 864c 8dbf
00000220: 9651 083d fd43 8bbf 9acb ef8b f43f 87bf
00000230: 81ad 6121 9585 a93f 07ba f912 a2f8 ae3f
00000240: f298 1c8b a8e0 a53f c644 1a04 ab1f 963f
00000250: fe3f d42f d79c 9c3f 6a83 c231 40f8 973f
00000260: 12ea 2d72 6dc6 873f 524f d6af 0c15 9c3f
00000270: d2ec 25d8 10dd c03f b626 fa8a ad82 c13f
00000280: ece5 7417 363f b73f 4c0b 44c7 8ed6 963f
00000290: ece6 4f5e 7e15 80bf 5bd0 3c36 ff5f 7fbf
000002a0: 8cbe 7adc 6fc1 85bf 1ce9 e7a4 49df 98bf
000002b0: 5128 b825 df4e 98bf 820d adf4 20ed 963f
000002c0: a12f 9c30 c320 af3f 4a02 a7d1 d434 b23f
000002d0: 98d2 1727 3e3c aa3f 36fb 9fef 8eb4 a73f
000002e0: 2239 d80f 6b3d a13f c21d 4824 638a a43f
000002f0: 97a0 f146 dc25 a93f 3eac 6a0f ad99 be3f
00000300: 2057 8264 d203 c33f 9b82 92c6 5373 c13f
00000310: 0238 54b3 0eb0 b53f 1ddc 7765 1ee7 ab3f
00000320: c4d5 bab8 0c6a ae3f 977c 79eb 5803 af3f
00000330: c571 c605 db7b 963f 60ac 22cc 90a2 99bf
00000340: 5836 435e 48b2 9bbf 4ef5 49d2 9586 74bf
00000350: 9caf 7a66 7e62 a53f 76c8 f60a b8ea ab3f
00000360: c553 16d3 5805 ab3f 6af7 f5f2 7405 a53f
00000370: ecfa cb1e e07d ac3f eafe ce7f 840b b23f
00000380: 50c3 cfa8 8ffc a83f 3ad7 9e06 c9b8 a53f
00000390: 5f8c df84 82c1 bc3f 84dd 9092 6bb2 b63f
000003a0: d03a 9a1f f6ea b33f 0ca9 48d5 0ac5 a83f
000003b0: 2a08 715b 4cf8 973f 428d 3332 8c6b 993f
000003c0: 42b0 cbed 6282 ad3f 9869 662a 6537 91bf
000003d0: a9d4 6695 2832 81bf ff81 b265 21c9 a73f
000003e0: 84b1 0d65 fc9b af3f da92 1c17 8049 b63f
000003f0: da96 0cd6 b19e bc3f f469 bfd3 515d b23f
00000400: c6e7 d0b0 72a2 a83f 7276 10a2 5466 b63f
00000410: 6217 3506 460c b63f f806 7a5f bf59 b83f
00000420: d922 f1f3 7d4e b03f 9ee8 3dc1 6e2f ab3f
00000430: 2f71 a869 4d62 aa3f 5e8a 7816 2322 b13f
00000440: ae87 84c2 ff17 7fbf 3437 a85d 518c a23f
00000450: ca5a 2c99 ec4d b13f 98a3 fd03 d54d b43f
00000460: 5c09 5624 6179 b83f d2a1 531f 21e3 c03f
00000470: e210 c7aa b772 c23f ee93 771b db75 b43f
00000480: f89b 5a12 b5a9 b43f 6613 af1d d794 b53f
00000490: 0e4e 10d7 76ae b03f 469c 0fb4 2a41 ac3f
000004a0: 0a77 5e4e ee2e ad3f 73bc 1407 b6a1 af3f
000004b0: 3203 9266 ca5a b93f c64c b73a cddc c03f
000004c0: f09f 6b25 1245 b53f fa7c a1bd e1fe b43f
000004d0: 1076 0e64 fbcf b23f 70ae 0ad4 718e b13f
000004e0: 0245 684f df30 b33f 30ae 80ce 4dec af3f
000004f0: 613f efe0 34ae b23f 3883 b5f5 7923 b23f
00000500: bc88 6e23 dc8b 933f 843c 49eb 0a42 b83f
00000510: 0a37 b583 b75c bc3f 7c03 e235 b094 b33f
00000520: 2254 914f 5e97 7abf e27c 5b67 3722 863f
00000530: 025d 54d7 93a2 90bf 1a3c 5ccd 3fb7 ac3f
00000540: 44b2 9ea2 98cc a63f 2aa7 572c ec05 a13f
00000550: 1c81 6bb0 5cb6 993f be05 b8df 29ce 8b3f
00000560: 7e20 05d8 f67c 8c3f 9214 4453 1612 973f
00000570: 56be 7888 e819 aa3f 2cc4 1c6a 9add b43f
00000580: 0066 7bf5 d86b b83f 445d 68eb e188 ae3f
00000590: f089 854f 8306 67bf 1814 ea56 f1d5 90bf
000005a0: 5388 38ad 17ac 95bf d8a1 9135 7bf2 a1bf
000005b0: f032 4320 a56f a2bf c89f 3d70 7f3d b03f
000005c0: dce4 c461 6be1 a83f 8684 6949 dedb 9d3f
000005d0: aaea 89b3 2c54 753f c648 5a34 efc4 963f
000005e0: 0627 00d3 b786 a43f c2d5 b543 61e6 993f
000005f0: ba91 6c19 ab92 b13f 1016 b70d 7152 b83f
00000600: 8e49 89db f273 92bf 2c40 db9c 27a4 96bf
00000610: fc31 43ee b548 9bbf d210 ed48 e742 9bbf
00000620: 794d ec9e 0a96 8cbf 40ae 5aca e6ba a13f
00000630: c8a3 2f49 a724 b33f de63 4279 505c b83f
00000640: a8f3 782b 3c63 ac3f 5402 4565 e2b5 993f
00000650: 74a7 c573 d9ab a23f 3e37 a563 d487 a33f
00000660: d053 a0d8 b602 b93f fff4 beb3 f706 bf3f
00000670: 864e c042 e95c a03f 4be0 3f6d 0cdc a03f
00000680: ced6 a1d6 343b a33f 801e f8a9 c64a 953f
00000690: 286a a25b dfd2 83bf cd79 1b72 fa4b a03f
000006a0: a5f7 bb9e 7b58 c13f 5590 7e87 5a07 c13f
000006b0: 9ec5 55c9 4ae7 b83f c4ea f487 60f2 b43f
000006c0: 86f6 0caa 8cfc ae3f c005 90cc 1285 ba3f
000006d0: 21e4 7d3a dc7b b93f 455e d2b0 167c b53f
000006e0: bb5a 5f5c e902 bd3f f34a c797 9370 c23f
000006f0: 0d66 22a4 4da8 b03f 62c9 78d7 ff73 a43f
00000700: d64b ab11 9060 a03f c0e3 2bb6 8b75 c03f
00000710: c432 2d7b b93f c13f 80cd 6414 9523 bd3f
00000720: 066e 4db2 4326 c03f f4a1 6b48 835e be3f
00000730: a2b1 e94c 8f92 b53f 5066 004e 9619 b43f
00000740: 6c09 bc5e 3da5 bb3f d8d1 26d0 e0c9 c03f
00000750: 9f47 1867 be2b c13f 8d4f c0d8 5380 c43f
00000760: 807f 369f 6e4e c83f dc9a 84ca 3a1f c63f
00000770: 025b cdda db9e b63f f289 bb83 0c2a c13f
00000780: b81e 0119 8af9 a53f 6072 f228 2b29 c13f
00000790: 67d3 5585 bf04 c53f 8242 febf 8c7d c23f
000007a0: f61d 9584 2d38 bb3f 9c7d ba1a cf42 c03f
000007b0: 63f5 e254 c818 c13f 8e24 47ab 09d4 c23f
000007c0: 18e6 d4a9 e124 c03f 137d ea92 a125 9a3f
000007d0: 8079 57d3 d8ba 913f b043 44e9 8118 b23f
000007e0: 6a24 cc5c 3b94 be3f 9ed4 c1d1 cedd c13f
000007f0: 239e 7fc4 8856 c03f 866a 2fff 7449 c33f
