NoiseCeiling/Harry_Potter_Noise_Ceiling/subject_N_kernel_ridge.npy (npy, 195304 bytes, 1 tensors)

array f8 [24397]
0.16415910936969058 0.10958239964085502 0.1169178028528991 0.053238157951800286 0.1081805954541921 0.0755432880993913 0.008410173336156491 -0.016395340844929475
-0.017529214949497593 -0.013906328532907061 0.02922860305122886 -0.021399208225250745 -0.052868650693488776 -0.04414422727733561 -0.04045007977850488 -0.003110614640152118
0.013203891182724133 -0.053770420300312496 -0.04072511005176287 -0.03656066484898021 -0.026963862314895615 0.026316077919623176 0.0668569920245998 0.049861414641061946
-0.00974256589077208 -0.007725410668628965 0.03117233236595532 0.06626794651491148 0.024636831079902194 0.03457861964747003 0.11690798725779156 0.13469032632953679
0.07379109752292058 0.013969328511036591 0.11263764101241208 0.10864025700994034 0.07064352404334423 0.018739354540014387 -0.01011422775326163 0.06933146190644582
0.11450694954352761 -0.010950905866226955 -0.022740382585414616 -0.029931771769972512 -0.02376871335009094 0.047888352028330104 0.03848788457434851 -0.007357458695227397
-0.026735165979713572 -0.024650999504722132 0.010140881646067423 0.01768001942960208 -0.016535577998672543 -0.040833395215939844 -0.04940728626908106 -0.046845777815068775
0.011207365490789399 -0.006309164841420047 0.01659153026697876 0.01357289849618385 -0.024588508081880213 -0.018563475515803125 0.016694619259386693 0.04646614930879106
0.00446399766634905 0.004178913253178807 0.015657467646760327 0.04372311342843266 0.012908403637349887 0.013567414925556742 0.021109454714991652 0.020419251562824807
0.05082302944471909 0.04901384157220599 0.035570274190759046 0.018747534833832253 0.059767565411080706 0.07499276677813328 0.08012694347577254 0.0324444898027363
-0.012982900237920036 0.0049014183675231155 0.07104512729320539 0.03864269111050758 0.0699668341931525 0.09336416224354935 0.10638598500665628 0.07433243732007122
0.021385678125712716 -0.015782926846307742 -0.017257229713839924 0.009136147890584643 0.009686764565219282 0.03982774460263055 0.059074916130294405 0.0966014497875587
0.081027385681509 0.026370837071351266 -9.802538539157625e-05 -0.01141161195392951 -0.00822898147137626 -0.003497416075529795 0.054102188148583336 0.08496309375842247
0.044780073117176855 -0.024608937797736038 -0.032163837395841895 -0.025301821559661847 0.01646342351430544 -0.00924012807309146 0.006028126859263964 0.001368598098597719
-0.007065071643299091 0.034092758957202936 0.03642307416811695 0.009394001864218519 -0.02245357843878687 -0.025182933338840766 -0.036250332287059796 -0.04162685727030725
-0.042462123707547775 -0.02627097814647273 0.02773702690149933 0.05757348737983582 0.04727812840815157 -0.013018625304216734 -0.0208706547626102 -0.00967176183195207
0.007689017322242513 0.007980380987957655 -0.0195008463084435 -0.02729020977818203 -0.03672772120572301 -0.0350680462650092 -0.034108947767093833 0.005929557656452656
0.062328744397013774 0.06676694750837758 0.053902186562659105 -0.002863695904995972 -0.013086227910142445 -0.00495099029876092 0.044886696572638385 -0.013769776192685644
0.001322833979358094 -0.0022682096068862958 -0.024785318252945603 -0.03795352827478097 -0.03342434067226137 -0.03243379543476457 0.010639268322913223 0.014640544526967567
0.028696812106470796 0.032436083649919546 0.03599808140421104 0.02581109410133497 0.003639941605681179 0.021021318673641508 0.11422651193197321 0.04910002567940152
0.05634704111335394 0.03892579099478004 0.008660709574945222 -0.028798155797671882 -0.03711661815656046 0.01660526971652636 0.008870198409591024 0.021188639138300082
0.06825594778917284 0.05204107382710152 0.020538286426432614 0.009954197724635579 0.043470276432932956 -0.013415660474720304 -0.017331934985194836 0.024475348711055885
0.012585553387667758 0.06179985980067426 0.1054734701856124 0.0662401336878109 0.049595962774440464 0.04656252924389857 0.03669257070142008 -0.023671707391052017
0.005455734924943244 0.018301559248010198 0.017391003378837463 0.006640472221722958 0.012519092101861197 0.015128160756680865 0.0073764317637442095 -0.015406706818943076
-0.013548745843983273 0.08309486182853407 0.1105009960256191 0.041236714545505565 0.034860896580078266 -0.006895770029061168 -0.021607582049181024 0.07569113041790378
0.07388058289577029 0.05388230645775191 0.04395469582602373 0.06321807705941737 -0.00038011497876623915 0.015166197575336986 0.05026735203772718 0.044213715196314576
0.06258651897077304 0.061940263643918095 0.01919300704355403 0.0343109089697737 0.04164425692513306 0.036758860601497204 0.017902289620702352 0.06808487455052513
0.009004832310099107 0.022168339968356328 0.024421005267096646 0.059537265178646506 0.05433712762840212 0.04537223187044792 0.02263854272572493 -0.016956054440283676
-0.020461123686853593 -0.009561655765936546 0.01188682837536961 0.021341398382915468 0.052795680247579885 -0.00044606680769373124 0.024550814685167677 0.07974742244039155
-0.0035209042565507546 0.0028397919048425645 0.00917094308355447 0.02298963242392195 0.01936580680767438 -0.00402813239842425 -0.016781768272600205 -0.016897745676112057
-0.016790979513218708 0.013722287226920381 0.04568642663667111 0.02696468767835701 0.03915685957914429 0.07649445238399588 0.08680577632352784 0.035201825198578604
-0.016711538376622648 0.005052443826322763 0.004670301051237587 -0.01106149534149621 0.012276948764387752 0.0246647257470604 0.008326345513887685 -0.023453367938419664
00000000: d8a9 0a6b 2a03 c53f 77b7 ac96 970d bc3f
00000010: d8c8 923b 53ee bd3f 6cc2 9a26 0842 ab3f
00000020: 9f9d 8937 b9b1 bb3f 8bb6 d10f ce56 b33f
00000030: d4b9 755b 5a39 813f 2a67 f1b2 f0c9 90bf
00000040: ac07 bbb3 2df3 91bf f8d5 0cd2 eb7a 8cbf
00000050: 9ce6 d958 1aee 9d3f ba73 f38d ace9 95bf
00000060: 1fa3 6c8b 9911 abbf e43b ed78 129a a6bf
00000070: addd 8973 dfb5 a4bf 9414 cc84 6e7b 69bf
00000080: 7e5a 7a46 a40a 8b3f 4a31 5de9 cb87 abbf
00000090: b6bd 98ef ebd9 a4bf 9c59 b157 14b8 a2bf
000000a0: 50ea 432b 6a9c 9bbf f856 1818 9af2 9a3f
000000b0: be2c 4132 8a1d b13f 8c6a 6e72 6f87 a93f
000000c0: d238 0a0f e9f3 83bf 7609 b822 aea4 7fbf
000000d0: 6810 35d0 a3eb 9f3f b5fb 0da7 eff6 b03f
000000e0: 589f 0fbf 653a 993f 84ac 0df1 49b4 a13f
000000f0: 8cd4 e98d aeed bd3f 8322 5659 883d c13f
00000100: d1cd 982e f9e3 b23f 38dc d088 f39b 8c3f
00000110: ec67 7208 d2d5 bc3f a400 e30e d9cf bb3f
00000120: fcba 70a9 b115 b23f 1a0d 97cb 6830 933f
00000130: b47c 65ab c4b6 84bf 92d8 78e9 b4bf b13f
00000140: b244 74d3 5350 bd3f 8cc6 74b4 6d6d 86bf
00000150: f2f3 023e 4149 97bf bc16 7433 6fa6 9ebf
00000160: 6ccc 065a d356 98bf d35b a473 d284 a83f
00000170: 54fe 131b afb4 a33f ec8b a4c7 da22 7ebf
00000180: 9add 249e 7660 9bbf 38f8 be92 1c3e 99bf
00000190: c602 2e18 bec4 843f c49c f804 b61a 923f
000001a0: 5c26 e6da b3ee 90bf 5cff 1262 1de8 a4bf
000001b0: 9c6c 6b6d e94b a9bf 19c2 5777 2bfc a7bf
000001c0: 0cde 0e22 e3f3 863f 5c26 8b8a a3d7 79bf
000001d0: f68f 8cbf 5efd 903f 946b 3999 1bcc 8b3f
000001e0: 0ac4 46d8 ba2d 99bf 123e f6c0 4d02 93bf
000001f0: 8ef4 f3ee 6418 913f a8fb 4d3f 69ca a73f
00000200: 5840 c83f d748 723f b465 157c e81d 713f
00000210: da8e ecdd 8208 903f e842 823c e062 a63f
00000220: 7456 ba9b b86f 8a3f 2017 2c9b 3bc9 8b3f
00000230: b193 8c86 b79d 953f 8e3c afc6 c8e8 943f
00000240: 948a b2e2 7905 aa3f ee38 359d 5718 a93f
00000250: 1ad7 b758 4436 a23f 95bc f7c3 8d32 933f
00000260: 1ab1 9ab5 da99 ae3f b9a6 bfd8 b932 b33f
00000270: 20c3 c109 3383 b43f a2bc 466d 909c a03f
00000280: 80ca 6e5f c796 8abf 02fc 7a79 8213 743f
00000290: 94b4 4372 0330 b23f 641e 198d f9c8 a33f
000002a0: ee0b aab0 58e9 b13f f658 74b7 b6e6 b73f
000002b0: c638 5ba6 1c3c bb3f 5859 525b 7307 b33f
000002c0: 4a62 9c90 20e6 953f d669 8f4a 6629 90bf
000002d0: 2246 f614 e1ab 91bf 5f3b 3603 f9b5 823f
000002e0: a4e5 1788 a7d6 833f c75e 1559 4d64 a43f
000002f0: 264d 9641 113f ae3f b170 9563 dfba b83f
00000300: 161c 95f3 35be b43f 688c 28eb f400 9b3f
00000310: 8896 384c 5fb2 19bf d21a 18a1 f85e 87bf
00000320: 6c40 6432 5bda 80bf 22e7 46f5 9ca6 6cbf
00000330: 0cfc 7a31 48b3 ab3f 3f35 0f2d 24c0 b53f
00000340: a8fd 19eb 69ed a63f ef4e 1fdc 1533 99bf
00000350: d93f 754b c777 a0bf f80b 8380 b8e8 99bf
00000360: 29eb 4ba6 c9db 903f 2e07 14ff 7cec 82bf
00000370: 4483 77fb f2b0 783f a042 ca04 516c 563f
00000380: a50b 6eba 43f0 7cbf 69d1 8029 9b74 a13f
00000390: 6e62 be90 0ba6 a23f 2276 4896 293d 833f
000003a0: b081 4a24 12fe 96bf d440 6e0c 8ec9 99bf
000003b0: 65bb 484f 678f a2bf 12f3 388d 1d50 a5bf
000003c0: 0206 4971 98bd a5bf 4262 e47f c7e6 9abf
000003d0: 7489 b85d 1867 9c3f 127d d3aa 457a ad3f
000003e0: bc7f a8be d634 a83f 4c29 5d4f 82a9 8abf
000003f0: 6427 9bee 1d5f 95bf c47d 1ae6 c9ce 83bf
00000400: aca0 ffde 847e 7f3f 58bc d29a 0458 803f
00000410: dd6c 8ea4 07f8 93bf d03a fef9 f6f1 9bbf
00000420: b4d0 ded2 f9cd a2bf 5887 af5f 70f4 a1bf
00000430: 703f 525e ba76 a1bf 0e68 6d83 9749 783f
00000440: c463 929d 8de9 af3f 2c92 0080 a317 b13f
00000450: d063 f040 1199 ab3f 8da4 3e08 9b75 67bf
00000460: 736d 37c7 f3cc 8abf 9fe6 a756 7d47 74bf
00000470: 5823 9c9b 63fb a63f 19d9 5d13 5433 8cbf
00000480: 92f8 7a2b 5eac 553f 9a26 a0c2 c794 62bf
00000490: 3ef8 448d 5261 99bf 657e 6a15 a56e a3bf
000004a0: 9acb 27c4 fe1c a1bf 14dd 5a95 299b a0bf
000004b0: 5b93 006c 0aca 853f 25fc 829f dcfb 8d3f
000004c0: c1ab fc75 b262 9d3f fd33 f95c 769b a03f
000004d0: 341d b32c 576e a23f 3f27 2834 396e 9a3f
000004e0: 3fe8 fbc4 82d1 6d3f 166a e3d0 9c86 953f
000004f0: a17f 15dd f23d bd3f 4f34 0d79 a323 a93f
00000500: 5acf 9df5 84d9 ac3f 2647 96ce 14ee a33f
00000510: b28b 13c3 b4bc 813f 252e 5885 437d 9dbf
00000520: 56b8 3d0a f300 a3bf adb5 7ec9 f800 913f
00000530: 4034 a0e0 892a 823f 0a3e 9580 79b2 953f
00000540: 2d11 83c7 3879 b13f dcb1 45ac 20a5 aa3f
00000550: 9cd3 1112 fd07 953f 8458 7bcd dd62 843f
00000560: 2a4b 416f bc41 a63f baff f177 ab79 8bbf
00000570: 4851 c077 76bf 91bf 8fb6 16d9 1010 993f
00000580: 00e4 9d61 74c6 893f 3089 7b31 3ba4 af3f
00000590: 52f7 0a31 4f00 bb3f 502f df07 1df5 b03f
000005a0: 627c 425c a464 a93f 2ea7 a438 0bd7 a73f
000005b0: a268 565e 5ec9 a23f 5217 5764 653d 98bf
000005c0: 989e 40b1 c058 763f 7279 bed9 a4bd 923f
000005d0: dce4 067b f2ce 913f a553 5b30 0a33 7b3f
000005e0: 818f 3919 9ca3 893f 74ae 965d 83fb 8e3f
000005f0: 50ba fbd2 bf36 7e3f 424f 692f 8d8d 8fbf
00000600: 50ee 69e2 71bf 8bbf cee9 0472 b445 b53f
00000610: 6dff 1a14 cb49 bc3f 4c20 bc88 fa1c a53f
00000620: 3cfc 7095 49d9 a13f 83c0 162c bd3e 7cbf
00000630: 45cb fc48 4c20 96bf b1fe bd71 7e60 b33f
00000640: a2c4 587f d6e9 b23f 4c60 2330 7696 ab3f
00000650: ff23 28da 3a81 a63f f677 7c55 0f2f b03f
00000660: 4299 0b67 45e9 38bf 7cd9 b994 740f 8f3f
00000670: 35fb 1d72 a4bc a93f 720c 9b19 2ea3 a63f
00000680: 5f63 268c ab05 b03f 7aff 4f5d a2b6 af3f
00000690: 4f7f 41e6 54a7 933f fba8 d70f 3391 a13f
000006a0: ce8c 1e63 6552 a53f 5a49 3eb0 0ed2 a23f
000006b0: 741a c751 fa54 923f fff8 8ba5 026e b13f
000006c0: 1204 3922 2071 823f 02cc ae1c 4cb3 963f
000006d0: 589b d4eb d101 993f 5acf ab1d ab7b ae3f
000006e0: dcc0 3e74 13d2 ab3f a069 0f78 073b a73f
000006f0: 765a 8be2 8e2e 973f da2d 298d ed5c 91bf
00000700: de3b 4cc4 c2f3 94bf 6482 7bb6 0f95 83bf
00000710: cfc5 0019 1f58 883f da0f 6c00 85da 953f
00000720: 941d 1110 0908 ab3f 5bfd d259 c23b 3dbf
00000730: d0dc a648 d923 993f 0f60 52bb 536a b43f
00000740: 58a2 4b14 dfd7 6cbf 73d5 7aab 7943 673f
00000750: f851 f024 37c8 823f e497 a11d 988a 973f
00000760: d734 994b a1d4 933f 7a9e a48e cd7f 70bf
00000770: 1377 9967 3d2f 91bf eb58 3884 a44d 91bf
00000780: 5a21 828f a731 91bf c672 ed36 6e1a 8c3f
00000790: 301c 8d18 3664 a73f 9cce e68e a19c 9b3f
000007a0: 22ec 9c2e 5e0c a43f a08f 50f3 2395 b33f
000007b0: 6ad7 6942 e738 b63f fe8c f93f f905 a23f
000007c0: 607c 2c5b d41c 91bf 8fa1 fb0f dfb1 743f
000007d0: a2cd 7064 2a21 733f 6885 e4c5 68a7 86bf
000007e0: ad6f 802b a824 893f 2d32 cbb9 b541 993f
000007f0: 4a33 6b2d 670d 813f 7c34 1be1 2804 98bf
